checkpoints/normalized/model.ckpt (torch, 282527 bytes, 6 tensors)

layers.0.weight f4 [128, 18]
00000000: 0110 223c 2ce5 13be a2e8 3cbf bb65 1d3e
00000010: 7b96 52be 98a7 30be a15e 6b3e 09cb 75be
00000020: fdb0 b0bc 08da e4bd b6d2 8dbd 598e 80be
00000030: 7e75 4f3e 1c5d 5cbe d5c6 82bd 0505 1abe
00000040: 6eb6 01be a0de 233d 9348 29be 0236 d5bd
00000050: 2c27 9c3e 8b50 893c 3e80 36be efea bf3c
00000060: 33a9 a23e e204 08bf 0210 6bbe 1868 353e
00000070: 61a8 233e 7ed2 193d fa99 92bc ea22 0d3e
00000080: 2c3e 673d 292e 90bb 64d7 d0bd 94e7 55bd
00000090: a26d a9bd 7db3 52be a06b b63d 3e34 9cbe
000000a0: 115d 52bf ed3e 04be a26d 41be 86e8 c9bc
000000b0: c0fc 84be 72f1 81bd 9542 ed3c 0dc6 033e
000000c0: 7a9d dabd cbf2 953d 5442 0c3d 8793 4e3d
000000d0: 23f2 a4bc 176a ff3c ca64 7b3d a700 9abe
000000e0: 0923 0cbf 6686 ebbd 92cd b9be 4132 503e
000000f0: 41c2 0abe bb5d 9cbe 2d4e 423d 9440 a6bd
00000100: 3fcc cebc c3cf b4be 6e06 f0bd bb69 0bbd
00000110: fd35 1d3c f88e 963d ff95 83bd a5e0 843d
00000120: 95a5 0dbe ec11 c3be ec94 453c 29d0 523e
00000130: a33a d1be 46a7 15be 3b98 363e 88f1 fabe
00000140: a762 7dbe f47e bcbd 830b 38bd f9aa 9ebb
00000150: b804 90bd 40a5 d0bb 28be 633d fc91 33bc
00000160: 0141 a5bd 5ad1 d53d 9aed 013d 5917 743e
00000170: 5e82 b6be eea7 22bb 73dd 15bf 4bad 9c3c
00000180: 3fe3 01be 6338 1d3f c026 133e 8a14 28be
00000190: 399a a5bd f909 073e 89d3 20be 6a7b 573d
000001a0: b7cb ab3b e049 f93c 818d e23d fe64 2d3c
000001b0: 9c70 6f3e 88a5 273e af8f 3d3e 71a2 68bc
000001c0: e819 dfbe 6a72 1e3e bfb5 33be 1dcf b8be
000001d0: 68ea c2be 5770 143e 6f6c 4c3d 2885 bd3d
000001e0: bad4 65bd ea20 d13c 4f41 efbc 5d72 3bbe
000001f0: 8878 c6bd 63e4 1d3a 7826 eebc 0089 efbe
00000200: 7ea3 ab3e 6f4b 09be 8706 9fbe d1df a2bd
00000210: 066b b33d da6d b4bd da5e 1dbe be73 dbbd
00000220: 7894 0ebe 4249 adbe da9f b6bd 63dd 97bd
00000230: 55ca e33c ebc3 8b3d 38c1 0c3e 8f36 d23c
00000240: f8d3 24be e776 813d 5e90 253f 65b5 c83d
00000250: 4e3f 6a3d c432 91be e0c2 2c3e 030a 653e
00000260: c2d7 603d 59d1 07be 0100 2c3e 8640 10be
00000270: d153 873c bba0 91bc eff7 f7bd d8c8 0e3e
00000280: 6140 01be 2ef2 2bbd 0e1f 28be d540 b43a
00000290: ce2c f1bd 9b7b a03d 6abe 193f 3fd7 683d
000002a0: 4af2 563d 2b59 3b3e 2212 3b3e 36a1 58bd
000002b0: f0ed 903c ecf2 c6bd 2e69 ef3c 473e 4abd
000002c0: d7ee 183d 7a4f 213c 1e21 6fbd 2b76 893d
000002d0: 3df2 b0bd 3275 b7bd 2b66 27bf 998b e43d
000002e0: cd4f 013e ab48 fe3d 7aa6 353e cd3b 5a3e
000002f0: a8c0 753e 073d d93d ea91 3cbe 4f7e adbd
00000300: 6f1b f8bd 31cf 2fbe 6d67 b53d a2d6 73be
00000310: d4c4 813d 5c20 0abe fb00 533e c273 90be
00000320: bbff 09bf f64e 0abe 8f86 d2bd 763b 273c
00000330: 0ae9 7c3e 3489 203e 1280 343e 6e1e 1fbe
00000340: 1f85 4a3e aefc 633d 780a 8b3d 6fc7 523e
00000350: 054a b1bd dbad 63bd b37b 1ebe e0b2 9db9
00000360: ae58 42be a787 fc3e cd6a 06bf 8e75 043d
00000370: 42fe 96be 2aab 003e 14b5 a7bd 46b1 9d3d
00000380: ff73 2c3e efdc cf3d aadd abbd b781 853d
00000390: 298a e8bc b4d8 e23d 64d9 95bd 3323 943e
000003a0: dfc5 833e 47b0 ccbc 44cb 2cbd d965 c6be
000003b0: fdf4 b1be 3a65 673c a9d5 f1be a6fc 08bf
000003c0: c599 2b3e 36d3 6fbe 95c7 95be a565 6b3e
000003d0: 9563 14be e3ef 433c 84d9 8e3e 4d45 6ebe
000003e0: 303c f6bd 8138 aebc 2bd5 dcbd f14c 58be
000003f0: 547a 1f3e c762 323e f77c 003f 7377 603e
0.009891511 -0.14442891 -0.7379247 0.15370838 -0.20565216 -0.17251432 0.22985317 -0.24003233
-0.02156877 -0.11174399 -0.069249555 -0.25108603 0.20259663 -0.21519893 -0.063855805 -0.15040977
-0.12667248 0.040007234 -0.16531591 -0.10410692 0.30498636 0.016762039 -0.17822358 0.023427455
0.31769714 -0.5313245 -0.22955325 0.1771549 0.159822 0.037554257 -0.017895687 0.1378285
0.056455776 -0.004400034 -0.101973325 -0.052222803 -0.08272864 -0.20576282 0.089072466 -0.30508608
-0.8217326 -0.1291463 -0.18889478 -0.024647009 -0.25974083 -0.0634488 0.028962413 0.12868519
-0.106745675 0.073217 0.034242943 0.05043366 -0.020134991 0.031178517 0.061375417 -0.30078623
-0.5474096 -0.11500244 -0.3628965 0.2033167 -0.13550664 -0.3054026 0.047437835 -0.08117786
-0.025243877 -0.3531476 -0.11719976 -0.03403638 0.009595391 0.07351488 -0.06425094 0.0648816
-0.13832696 -0.3809961 0.0120594315 0.2058722 -0.4086505 -0.14614591 0.17831509 -0.490124
-0.24744664 -0.09203902 -0.044932853 -0.004842159 -0.0703215 -0.0063673556 0.05560127 -0.010960098
-0.08069039 0.10440321 0.031720735 0.23837031 -0.35646337 -0.0024819332 -0.5854103 0.019125601
-0.12684344 0.61414164 0.1437025 -0.16414085 -0.08086056 0.13187398 -0.15705694 0.05260793
0.0052427906 0.030430734 0.11062146 0.01058316 0.23382801 0.16371739 0.18511842 -0.014198885
-0.43574452 0.15473333 -0.175498 -0.36095515 -0.38069463 0.14495979 0.049908098 0.09253913
-0.056111075 0.02552839 -0.029205946 -0.18305345 -0.09690958 0.0006023107 -0.029071078 -0.4678421
0.33523172 -0.13407682 -0.31059667 -0.07952846 0.087606475 -0.08810015 -0.15368214 -0.107154354
-0.13923824 -0.33844954 -0.08917208 -0.07415273 0.02780644 0.06824478 0.13745582 0.025660781
-0.16096485 0.06321507 0.6467341 0.09800223 0.05718928 -0.28359044 0.16871214 0.223671
0.054893263 -0.13263454 0.16796876 -0.14087114 0.016519459 -0.017776838 -0.121078365 0.13943803
-0.12622215 -0.041979007 -0.16418096 0.0013752232 -0.11776124 0.07836076 0.60056174 0.0568459
0.05247716 0.18295734 0.18268636 -0.052888118 0.017691582 -0.097143024 0.029224958 -0.0493758
0.03733715 0.009845609 -0.058381192 0.06711992 -0.08639953 -0.089579 -0.6539027 0.11159439
0.12628098 0.12416204 0.17739287 0.21311875 0.23999274 0.10607343 -0.18415037 -0.08471357
-0.121146075 -0.17168881 0.088576175 -0.23812345 0.0633637 -0.13488907 0.20605843 -0.28213316
-0.5390584 -0.13506684 -0.10279571 0.010207048 0.24698272 0.15677339 0.1762698 -0.15538952
0.19777344 0.055660896 0.06789106 0.2058389 -0.08656696 -0.055585723 -0.15476875 -0.00030078646
-0.18979141 0.49322245 -0.52506715 0.03233867 -0.29490858 0.12565294 -0.08188835 0.07699828
0.16841124 0.101495616 -0.083918884 0.06518882 -0.028386192 0.11076489 -0.073168546 0.28933105
0.257369 -0.0249864 -0.042186037 -0.3874958 -0.34757224 0.014123255 -0.47233322 -0.5351051
0.16757877 -0.23420414 -0.29253832 0.22987993 -0.14491113 0.011959049 0.27900326 -0.23268624
-0.120231986 -0.021267178 -0.10782846 -0.21123101 0.15574008 0.17420493 0.5019068 0.21920566

layers.0.bias f4 [128]
00000000: 3f3c 973e 3aa8 9b3e 52ad b03e bd7f b83e
00000010: efc5 c83d 1b1e ad3e beb9 d63e 37c8 e73e
00000020: 94cb 103f 76d9 003f f298 cd3e a3a7 b43e
00000030: a504 283e 9fc8 fcbd 15ab a93e 5889 083f
00000040: 3abd 8b3e 03a4 c73e b3a8 f63d 225e de3e
00000050: 942a 0a3e 3ec3 0d3e 11b8 0d3f d8d3 a53e
00000060: 6a05 213e 5f24 e53e f065 cd3d 64a8 8f3e
00000070: e117 f43e 3159 623d f9eb 103e 2736 013e
00000080: 444c 3abd ae22 693e b9a8 c33e b9af 883e
00000090: 6dee 9b3d 8095 903e 812d ce3d a788 133e
000000a0: 1a77 473c b1ca f53e 2f57 8c3e e35f 4a3e
000000b0: bd81 ef3d 28fd c43d 3858 d43e 8158 8bbd
000000c0: fa0c 523e 9dc1 8f3e 9d12 043f fe12 fd3e
000000d0: 3848 623e 8ead 4f3e b5f5 963e ea6c d73e
000000e0: e87d 003f bcca 793e 4bb4 e13b 75eb 583e
000000f0: 28be 993e 12bd e23d 1031 d73e a6fa 013f
00000100: 737d 093f 5a82 493e 5641 5e3e 70c9 163f
00000110: d8e2 e03e f5d9 b63e 45ff ef3d bfad ec3e
00000120: d87c b73e 686b da3d bee4 193e 1467 3e3e
00000130: f540 493d 6b1b bf3e e184 4f3d 93e6 c43e
00000140: 795c b93e 98a1 7b3e 4bb8 0f3f 4c61 173d
00000150: d3ab a23e f7d3 b63e c3de f73e b2ab 733e
00000160: 9b24 103e 3a97 a73e aa4f 3bbd 36f2 923e
00000170: ae1b 463e 038c f53e cceb c63e 6381 d93e
00000180: 3a44 0ebd 8784 d13d e016 a23e 4212 dc3e
00000190: fc3e d93e cdf2 153e 34fe 133f af6d e93e
000001a0: 639d 933e cd17 f53e e277 0bbe a64c d23e
000001b0: 72fd 133e 1f59 563e 7e95 e03d 2b70 033e
000001c0: 04df 673c 205a eb3d 4f60 c63e cf38 293e
000001d0: 33b5 fb3e e91c c13e 68be da3d e55c d73e
000001e0: 4bd0 0d3f 1983 473d 9e5f 233e affa 213d
000001f0: cade fa3e 4355 7e3e c83e 2b3f 2168 0d3f
0.29538152 0.30401784 0.34507233 0.36034957 0.09803378 0.3381203 0.41938585 0.4526994
0.56560636 0.5033182 0.4015575 0.35284147 0.16408022 -0.12342953 0.33138338 0.5333457
0.27292806 0.3899232 0.120438956 0.43431193 0.13492805 0.1384401 0.5535899 0.32388186
0.15724722 0.4475431 0.10029209 0.2805816 0.47674468 0.05526084 0.14152516 0.12618314
-0.04548289 0.22767136 0.38214663 0.26696566 0.076138355 0.2823906 0.10067273 0.14407597
0.012174392 0.48006204 0.27410266 0.1976314 0.116946675 0.09618598 0.41473556 -0.0680399
0.20512763 0.28077403 0.515909 0.49428552 0.22097862 0.2028105 0.29484335 0.42075282
0.5019212 0.24393743 0.0068879477 0.2118357 0.3002789 0.110712186 0.4202962 0.50773084
0.53707045 0.19678631 0.21704611 0.5890112 0.43923068 0.35713163 0.11718611 0.46226308
0.35837436 0.10665017 0.15028664 0.18594009 0.049134213 0.37325606 0.050663833 0.38457164
0.36203364 0.24573362 0.56140584 0.036958024 0.31771716 0.3570859 0.4841214 0.23795965
0.14076464 0.32732564 -0.04573027 0.28700417 0.19346496 0.47958383 0.38851774 0.42481527
-0.034733035 0.10230356 0.31658077 0.4298268 0.42430866 0.14643402 0.5780976 0.45591494
0.28831014 0.4786972 -0.1361995 0.41074103 0.1445215 0.20932434 0.10966013 0.12835757
0.014152292 0.11491799 0.38745353 0.16525577 0.49161682 0.3771737 0.10680848 0.4206306
0.55395955 0.04870901 0.15954444 0.03954571 0.489981 0.24837212 0.6689267 0.55237013

layers.2.weight f4 [512, 128]
00000000: 3020 8b3e 16f1 3f3d 2222 d33e 41ab 993e
00000010: ab73 a73e 64d1 ebbd 8526 ac3d f383 983e
00000020: a024 f73d e10b 48be e6c6 263c 6524 413e
00000030: 07f9 2fbe 114d a93e ad33 57bc 8de9 863c
00000040: cfc4 633c 1f33 3cbd f01e 6f3e 230a 15be
00000050: a3cd de3c f7ff a43e 67c5 8bbe 00c5 a33d
00000060: 2092 363d 175c bd3c d66d 22be 88e1 023e
00000070: 207d 88bc 7676 523b 3a95 393c 4b35 133d
00000080: 092c e6bc eca6 d2be fb5d b0bd 3b69 143e
00000090: a0a1 a23e 1585 6dbd 7b89 1dbe 91d5 563e
000000a0: e5e3 1c3d 43ad f83d 91d6 0fbc fc6c 04be
000000b0: 9e65 3d3e ca07 e93d e788 573d 05f7 3c3e
000000c0: 8a9b 253d 3819 ef3d a4ba dfbd ce53 8d3d
000000d0: 289b dbbe 450a 9e3e e416 b8bd 5596 4a3e
000000e0: a8fd a03e 11df 293e 3c3c 893e afc2 7c3d
000000f0: 1e28 943c c071 123e d9a7 a83d b1c7 663e
00000100: bda3 41be 4378 12be e509 613c 487f 55be
00000110: e86b 37be dbed 9abe 9eb8 333e 3e4a 313e
00000120: d86e a23d be1e 473e ab8e fe3d f0d5 543e
00000130: 1485 cdbd de62 243e b6bb 813e 4437 26be
00000140: ded3 823e 6ad2 74bd 2eb7 a3bd e216 41be
00000150: f6bb 68be 1657 46be 434a 13be 7282 4c3e
00000160: 3b73 103e eb3e 993d cf4d 7fbe 2ff5 8b3d
00000170: a6ac 34be bf56 093e 80d1 403e c2ec 8abe
00000180: a1cf a13e d736 d83d 0fcc f13d c281 9a3e
00000190: 0362 03be 73f7 45be 91de 50be 7cf9 adbe
000001a0: 6705 a6be 346e aa3d a322 1c3e 5ff0 f23d
000001b0: 164d c33d e1b4 ff3d c0b6 4b3e 715c 303e
000001c0: 646c 653e 566a b83e 9700 7abd 8f47 f1bd
000001d0: 398f e1be 68f5 da3d 5b17 053e 1b2c f3be
000001e0: 3073 afbd d8e5 de3d 45eb 6cbe 3041 d7be
000001f0: 5b44 09be 4c8b 54be e66d 59bd 8964 3bbe
00000200: e44c c2bb fea0 b5bc 6659 2f3d 5f62 0c3e
00000210: 463d 05bb 29c3 383d 51dc a73d 1d1f 17bc
00000220: e157 ae3d 580d c33d 3908 323d 72e4 e6bc
00000230: 6533 003b 1564 853b 8984 2e3e 1960 d93d
00000240: fe83 243d c108 2e3e 2ed9 353c dbb0 273e
00000250: 6e10 bb3d 2007 b63c 9906 833e b419 9b3d
00000260: 618e 583d ab01 573e f373 913c 5cbd b43d
00000270: c8dc 50ba 3aef c93d 2417 803d 8731 2c3d
00000280: 3207 ed39 8bb9 f03d 2acc e13b d2db 843d
00000290: fd9f 823d 1b67 993c f0d4 6e3d 8f7d 083e
000002a0: b1be 233d 7f2d b43d d1ae 043e 457f 883c
000002b0: 6f93 b5bd 410a d43c cdc1 ec3d c641 e4bd
000002c0: 450f ba3d dec4 e13d ccfe da3d 426a 133e
000002d0: a46b 8e3c dae3 ffbc 607e ef3d c441 ea3d
000002e0: e2ae 483d 0237 8fbb d77d 6db9 4433 5f3d
000002f0: 1c8b ba3d 6fcd 84bb d618 983c f252 8e3d
00000300: 8d2d 9d3d f394 c53d 9702 35bd f457 6b3e
00000310: 91cc c23d 99e3 003e 128e b1bb af37 e63c
00000320: 2802 dc3d 89af 803d b267 d53c f1a6 a03d
00000330: fd69 2f3d abc5 563d c8ba a2bc 216d 3a3d
00000340: 162f 063b 02a8 083d 8912 2c3e 3819 0bbd
00000350: 1078 c43d b334 853d 467a ea3d 6380 043e
00000360: 297e edbc b9bc 283e 3833 c93d fc7b f33d
00000370: bcee 2c3d 17e5 083e ce42 e43d 4ea9 013e
00000380: 40c6 5b3b 85b5 78bb cf89 d9bc 70c6 0e3e
00000390: b6fa 813d c4c7 f33c a460 443e 1011 a93c
000003a0: 6805 fc3d bca3 ee3d c26b 583c ee8b 3b3d
000003b0: d2b1 bc3d 4686 a33d 2d4b 1e3d 3907 963b
000003c0: a464 6e3d 2de1 6d3d 9785 b43d 7463 03bd
000003d0: c3af 3cbc db9d ae3a 7c46 b5bc d094 8c3d
000003e0: 3e69 143e 0e7a ed3d 0dc6 183e 86e1 0e3d
000003f0: 7710 343e 8382 c73c b970 773e 1f3d 363e
0.27172995 0.046860777 0.4123698 0.3001347 0.32705435 -0.115145475 0.084057845 0.2978817
0.120675325 -0.19535781 0.010179257 0.1886154 -0.1718484 0.3306661 -0.013134879 0.016468788
0.013901903 -0.04594719 0.23351645 -0.14554648 0.027197665 0.32226536 -0.27299044 0.07996559
0.04457295 0.0231152 -0.15862212 0.12781346 -0.016661227 0.0032114065 0.011327082 0.035939496
-0.02809717 -0.41142976 -0.08611675 0.14493267 0.31763935 -0.057988245 -0.15384476 0.20979907
0.038303275 0.12142422 -0.008779184 -0.12932199 0.18495795 0.11378439 0.052620795 0.18453605
0.040431537 0.11674732 -0.10924271 0.0690075 -0.42891812 0.3086721 -0.08988741 0.1978391
0.31443524 0.16589 0.26803768 0.061709102 0.018085536 0.14301205 0.082351394 0.22537114
-0.18910117 -0.14303689 0.013735269 -0.20849335 -0.17912257 -0.30259594 0.17550895 0.17313477
0.07931298 0.19445321 0.124295555 0.20784736 -0.10035148 0.1605334 0.25338525 -0.1623202
0.25552267 -0.05977098 -0.07993923 -0.18856385 -0.22727951 -0.19369158 -0.14383797 0.19971636
0.14106457 0.07482704 -0.24932025 0.068338744 -0.17643985 0.13411997 0.18829918 -0.27133757
0.3160372 0.10557335 0.11806499 0.30177122 -0.12830357 -0.19332676 -0.20397402 -0.33979404
-0.32425997 0.08321801 0.15247588 0.118622534 0.09536187 0.12485672 0.19893932 0.17222764
0.22404629 0.36018628 -0.06103572 -0.11781227 -0.44054583 0.10691339 0.1299719 -0.47494587
-0.08566892 0.10883683 -0.23136623 -0.42041922 -0.13404982 -0.20756263 -0.053083323 -0.1830007
-0.0059295762 -0.022171494 0.042809866 0.137094 -0.0020330711 0.045107994 0.08196319 -0.009223727
0.08512855 0.095240295 0.043464873 -0.028185103 0.0019561884 0.0040707686 0.17042746 0.10614032
0.04016494 0.16995527 0.011099143 0.16376059 0.09133993 0.022220194 0.2559097 0.07573262
0.052870158 0.2099673 0.017755484 0.0882518 -0.0007967469 0.09860082 0.06254414 0.04203942
0.00045209524 0.117541395 0.0068907933 0.0648724 0.063781716 0.018725922 0.05830854 0.13329147
0.03997678 0.0879774 0.12957312 0.01666225 -0.08866011 0.025883796 0.11560402 -0.11145358
0.09084944 0.110238776 0.1069313 0.14396003 0.017385311 -0.031236578 0.11694026 0.11438325
0.048994906 -0.004370571 -0.0002264896 0.05449225 0.09108564 -0.00405281 0.01856653 0.06949414
0.07674704 0.096475504 -0.044191923 0.2298277 0.09511674 0.12586822 -0.0054185474 0.028102724
0.10742599 0.06283481 0.026050422 0.078443415 0.042825688 0.052434605 -0.019864455 0.04551423
0.0020474843 0.03336335 0.16803946 -0.033959597 0.095932126 0.06504192 0.11449103 0.129396
-0.028990822 0.16478242 0.09824222 0.118888825 0.042219862 0.13368641 0.111455545 0.12662241
0.0033534914 -0.003794999 -0.02655497 0.13942885 0.063466474 0.029758342 0.1917749 0.020638019
0.12305719 0.116523236 0.013209285 0.045787744 0.09213604 0.07984595 0.038645912 0.0045784977
0.058201447 0.058076072 0.08814543 -0.032077268 -0.011516514 0.0013322191 -0.022128336 0.06864321
0.14493272 0.11595546 0.149193 0.034883045 0.17584406 0.024354225 0.24164094 0.17796753

layers.2.bias f4 [512]
00000000: 88ae ef3d 8e56 303e ab54 353e 056a 3f3e
00000010: daa4 833d 7528 f2b8 5f7f 5bbd 3f2b b83d
00000020: f240 7f3e 3741 243e 0ecd 37bc e27a 093e
00000030: 3263 593e d920 183e 9485 033e 682c 813e
00000040: 338c 113e 27b6 83a6 ef86 8c3e bb22 893e
00000050: e55d 3f3e c63f 6d3e f137 2fbe c66d 2f3e
00000060: 88c3 673e 869b 023e 1c2b 783e be08 86ba
00000070: e870 d0bc 54bb 863e 5985 8a3c 858a 693e
00000080: bce8 803e fe22 27bd a5d3 793e 4c1d 6d3e
00000090: 26e6 743e 02a1 4bbe 10bb a4bd 0187 673e
000000a0: 2a8f 2b3e bfc8 323e 3de0 c43d 3008 ee3d
000000b0: fb6c 72af 8c4c 413e 4d1f 183e 203b 4f3e
000000c0: a7eb fcbd 4f81 2d3e 9cd1 163e 6237 4eb7
000000d0: 7daa 7a3e 4767 0a3e a478 e0bc 5740 63bb
000000e0: 5639 243e d25e 003e 712b 023e 85e0 853e
000000f0: 48e9 b13d 9f8e 512a 8b7c 5a3e d512 6b3e
00000100: b6fa fe3d e3a2 313e e14e 8b3e b535 47bd
00000110: eb68 073d 83ba 5a3e 6264 d13d 8cd0 0a3e
00000120: 8724 503e 8fc3 45be 63a1 233e 1d70 643e
00000130: 7309 923c 87b9 2a3e cdde 42a9 c6da 8a3e
00000140: 7f45 33be e1d1 24bc f9ef 33bd 4ec7 25be
00000150: d65f 653e 6092 5f3e 9cb1 643e b122 373e
00000160: 15d1 443e f3ad 223e 9272 8a3e 9c05 163e
00000170: f618 39ba 2bb6 1dbe db93 5ab9 c1c3 4cbe
00000180: 7ab4 763e 6bf7 4f3e 477f 2d3e 812b 393e
00000190: d87f af3d 9fc6 093e 9f38 0d3e 67e6 403e
000001a0: 5ae7 cbbd 8528 273e ea5c 393e b1b6 2d3e
000001b0: cca5 783e c929 5e3e ec20 d4b6 d807 873e
000001c0: ab5d 6b3e b314 1a3e e49c 383e 9f6a 603e
000001d0: a92e 823e 882d 663e 4271 2eba 43b0 013e
000001e0: 0c8f 523e 4460 853e 7759 5b3e 04c9 0e3e
000001f0: 2f35 4b3e 41c2 203e 7be4 1fa7 e72f 55ae
00000200: 3172 0e3e 11bb 443e 4ef1 64bd 3d43 243e
00000210: 8f99 443e ae8b 1a3e 19b6 2d3e 2064 793e
00000220: 3dfa 563e 479a 27be a7c1 88bd 6961 153e
00000230: f990 0e3e 9e1c edbc 5938 643e 7f5d 6b3e
00000240: 3682 3d3e 9060 bcb8 5c5b 833e bba3 893e
00000250: 99fd 813e 5f88 09b7 1380 2a3e a5d9 1a3e
00000260: 3600 093e a260 613e a894 843e 26b0 e4bd
00000270: fbf7 5f3e 4995 623e ea25 703e a650 dcbd
00000280: 848a eb3d 9d17 1d3e 7076 5ebd baee 38bc
00000290: 69e3 773e 3b23 563e 81dc 22bd 81b0 1b3e
000002a0: 1e34 ff3d 2aa3 66bb 1908 18bc 251c 1f3e
000002b0: d06b 7a3e cd6d 6d3e 8f9b 683e 2db1 82b0
000002c0: 61f5 13be 93f5 303e f1f8 8e3e 99ba 39be
000002d0: 5220 8c3e c73f c53d 113b 183e c651 a4bd
000002e0: c5dd 3a3e 0b6d e13d e10a 173e b1e6 623e
000002f0: d963 6c3e 6876 0e3e 18e0 193e 495e 613e
00000300: e433 07bd a9ac 743e 997e 01b4 e1da 6f3e
00000310: ec3b 693e 8586 08bd f1df 8a3b 62db 3b3e
00000320: e37c 203e c073 2f3e ed5b d3bd b42f a93d
00000330: c84b 67af c31c 95bb fae8 583e e7b0 4a3e
00000340: 4344 8b3e d7ca b8bd 3b57 573e 98bc 533e
00000350: 62c7 8fb7 9879 b504 56e3 783e 2e48 e53e
00000360: 6c5b fe3d 24f2 193e 49cb e1b1 37f1 353e
00000370: 51a4 453e f88e 553e 4493 833e cb44 b093
00000380: 44f6 153e 1e03 cdbd 2f02 7b3e 46b5 623e
00000390: da19 463e fc7a 513e 59de 833d fd69 52be
000003a0: 4361 553e 2216 7a3e 5030 e63d d629 28be
000003b0: ec76 2e3e d734 773e 34f4 0c00 0a77 44a6
000003c0: a3b3 efb4 820a a83c 2e05 1b3e d332 033e
000003d0: be60 473e 95d6 fcbd 8ca9 8cba 4c49 78a5
000003e0: 936c 683e 28dd 3ba6 5039 07ad 6937 f93d
000003f0: 1bff e8bd a2ac b4bd 9d92 873e c574 663e
0.11703211 0.17220518 0.1770808 0.18692787 0.06427927 -0.00011546995 -0.053588267 0.089926235
0.24927118 0.16040502 -0.011218322 0.13425782 0.21229246 0.1485628 0.12843925 0.25229192
0.14213638 -9.139324e-16 0.27446696 0.2678431 0.18688162 0.23168859 -0.17111184 0.17131719
0.22633183 0.1275464 0.24235195 -0.0010225994 -0.025444463 0.26314795 0.016909288 0.22806747
0.25177562 -0.040804856 0.24397142 0.23155707 0.2391592 -0.19885638 -0.08043492 0.22610094
0.16753832 0.17459391 0.096130826 0.116226554 -2.204849e-10 0.18876857 0.1485569 0.20237398
-0.123496346 0.16943859 0.14728397 -1.2291452e-05 0.24479099 0.1351596 -0.027401276 -0.00346758
0.16037497 0.12536171 0.12711884 0.26147857 0.08687073 1.861241e-13 0.21336572 0.22956403
0.12450163 0.17347293 0.27208617 -0.048635203 0.033059042 0.21360211 0.102242246 0.13556117
0.20326434 -0.19312881 0.15979533 0.22308393 0.017826771 0.16672336 -4.3269902e-14 0.27120036
-0.1750698 -0.010059805 -0.043930028 -0.1618931 0.2239984 0.21833181 0.22333378 0.17884327
0.19220383 0.15886669 0.27040535 0.14650577 -0.00070609094 -0.15401523 -0.0002084518 -0.19996549
0.24092284 0.20309226 0.16943084 0.18083002 0.08569306 0.13454674 0.1379113 0.18837892
-0.09956236 0.1632405 0.1810185 0.16964222 0.24281996 0.21695627 -6.321925e-06 0.26373172
0.2298495 0.15046959 0.18028599 0.21915673 0.25426224 0.22478306 -0.000665445 0.12664895
0.2056238 0.26050007 0.21420847 0.13943869 0.19844507 0.15699102 -2.2189542e-15 -4.847314e-11
0.13910748 0.19211985 -0.05589419 0.16041274 0.19199203 0.15092346 0.16963996 0.24354601
0.20993896 -0.16367446 -0.06677561 0.1458794 0.1392249 -0.02894431 0.2228712 0.22984885
0.18506703 -8.982525e-05 0.2565564 0.2688273 0.25388792 -8.197588e-06 0.16650419 0.15122087
0.13378987 0.22009519 0.25894666 -0.1116641 0.21871941 0.2212726 0.23451963 -0.1075757
0.11501029 0.15341039 -0.05431217 -0.011287386 0.24207844 0.20911877 -0.03976107 0.1520405
0.124611124 -0.0035192468 -0.009279274 0.1553808 0.2445519 0.23186417 0.22715591 -9.509101e-10
-0.14449073 0.17281179 0.27924302 -0.18137588 0.27368408 0.09631305 0.14866282 -0.080234095
0.18248661 0.110071264 0.14750244 0.22158314 0.23084964 0.13912356 0.15026891 0.22008623
-0.03300847 0.2389399 -1.2060117e-07 0.2342334 0.22776765 -0.033331413 0.0042381217 0.18345407
0.1567264 0.17133999 -0.10320268 0.08261052 -2.103625e-10 -0.004550548 0.21182624 0.19794045
0.27200517 -0.09023064 0.2102937 0.20677412 -1.7139773e-05 4.266456e-36 0.24305472 0.4478163
0.12419781 0.15033776 -6.5714727e-09 0.17767797 0.19300963 0.2085532 0.25698292 -4.449648e-27
0.14644724 -0.1001036 0.24512552 0.22139463 0.19345799 0.20457071 0.06438894 -0.20548244
0.20837884 0.24422505 0.11239684 -0.16422209 0.17037553 0.2414125 1.18963e-39 -6.816249e-16
-4.4647922e-07 0.020512823 0.15138695 0.12812357 0.19470498 -0.12345616 -0.0010731681 -2.1535405e-16
0.22697668 -6.517838e-16 -7.6865875e-12 0.12168772 -0.113767825 -0.088219896 0.26479045 0.22505482

layers.4.weight f4 [3, 512]
00000000: bd71 8f3e d505 953d ceb8 30bd d7be 813b
00000010: c2da 0b3e e417 f43a d468 5dbe 0d17 9d3e
00000020: 7348 53bd d16b 6cbd 7ff5 783e 08ff 433d
00000030: a7f8 10bc c376 a03e 43fe d7bd 514f a83c
00000040: 9943 0fbb abb5 1ab8 d97c 953c 76b6 c5bd
00000050: 67dd 5a3a ebef 923d 09ec 733d c250 c7bc
00000060: 5f79 b9bd 6596 92bc 2aac b23d 0a1c 93ba
00000070: 361a 963e 8a38 f8bc 8715 9bbe 53b1 1c3d
00000080: 3c1c efbc 2361 f3be e109 2abc ac05 d53c
00000090: 19ce 2cbd 2d94 0e3f 6102 8abe f310 97bd
000000a0: 1006 b1bd 906c 15bd 7989 0cbe bb28 7c3c
000000b0: ba8c 2fb7 c9cf 973c a15d 033b 9962 063d
000000c0: 2e78 913f 1198 84bd a9b7 0ebd 0cf3 a6ba
000000d0: e901 8cbd 8569 7dbd e5d4 ecbb 5571 0f3b
000000e0: 96df 7e3d a109 b9bc f714 553e 898c 91bd
000000f0: 03ad 9bbf 0c9d e738 793e 99bd 008c 6ebd
00000100: 41e8 63bd abd0 8c3c 999c 8cbd 518d 19bf
00000110: 9930 3bbe 74b3 d93c 68cb 1bbd 4577 483c
00000120: 56e3 50bd 5b51 b6be a20c 7bbc 5e1d 51bc
00000130: 0276 6dbe a8ff 013d 8a26 6ab8 4df6 adbc
00000140: d47a a4be eeed 89be 67f8 81be faa7 403e
00000150: 8e1b 3e3d e1c7 fc3b a1dc 6b3d 995e 813d
00000160: 93d9 f6be 4e3b ae3d 2717 f63b f585 0ebd
00000170: 58a1 463a 1fe6 c8be 11ff 843a aad3 26be
00000180: f688 1d3c e49a 1bbd f7ac 58bd ecab 3bbb
00000190: dee3 52be 5700 1fbd 1b2e 4b3e e8c8 fc3c
000001a0: 03db 103f 5fb1 93bd 6beb 9e3d 5776 71bd
000001b0: dccf 5bbd 6678 673c 2554 f0b5 2f47 373c
000001c0: bfed 8dbd 258f 8e3d ce04 bbbc f033 94be
000001d0: 0395 f4bc c2a6 aabd aa50 4cba 829f a9bc
000001e0: cac0 99bc 76b2 813a 810d 233d 5fad 10bd
000001f0: 04fe b2bd 64d9 e5be 4f2f bf39 e4fc c639
00000200: 3c10 fabc 45c3 b6bd c06a b9be 62a5 8bbd
00000210: 9299 1abc 0368 863d fbf5 66bd 8542 86bd
00000220: a7d7 6abd 68ed 823e 8a40 453f 2f5e 1f3d
00000230: 6b3d f23c 116d b6be ee09 b9bc 689f 9fbd
00000240: 375f 3ebc b8c5 11bb d8b3 3d3c 6942 53bc
00000250: de89 6fbd 0c98 42b9 8743 48bd af8e 64bd
00000260: c58a ae3b e580 c53b bb36 8a3d 092f d6be
00000270: 4031 9c3c 945e 86bb d720 efbc 60c1 a03c
00000280: 0d64 b1bd a80f 183d 82a0 433c 562f 863e
00000290: afe1 d4bb ce9f 9ebd 9ac9 7ebf e5f8 07bd
000002a0: 6212 f0bb ed93 b7b9 b3ab a4be 5460 c23d
000002b0: cdad 023d 3fd3 4ebc 0c44 403d 4265 f7b8
000002c0: 85b5 07bd 9a3f 67bd 3621 413d 1672 cabe
000002d0: a9bf a43d 62c3 af3c 3b20 64bd 44b7 173f
000002e0: cf8c babd 90d1 503e affd bab9 9d66 06bc
000002f0: a22b 3dbc f480 833d 55e3 dbbc 90d5 51bd
00000300: 3e53 1dbf 9130 0dbd 0d86 6ab8 8b99 8c3d
00000310: 8fb1 a3bd f50e 3d3c 78d9 efbe 3b5f 40bd
00000320: b14d d43c 4aa8 cfbc e1cc 0d3e 3d53 b13e
00000330: 0166 baba c33c bf3e ce96 ae3d d395 37bd
00000340: fbfb 0a3c 7dcb ca3e 9a9c 153d 676c 283c
00000350: 52d9 bf39 e8dd d499 0bf1 563d 35f4 3e3e
00000360: 5c25 193d 9302 86bd adf0 4b38 17d9 96bd
00000370: 4d8c f6bb 8ff5 2dbd ca7f 02bc cfca 6438
00000380: be54 e93c bf0d ad3c 4791 3f3e a5ec b9bc
00000390: befd 943c 73b2 9dbc eb8b 8e3e f4a8 bf3e
000003a0: b035 c13c 5c6d 50bd 1602 e6bd 07a8 73be
000003b0: e5ee f23c 8626 253d 02a5 14b5 0234 8139
000003c0: 3e46 1f3a 947f e5be d1c7 9b3d 1cba 8d3c
000003d0: b679 403b 6269 b4be 5a16 a93e bec4 8639
000003e0: 4841 4a3d ac3c dfba c915 9339 e7e5 91bd
000003f0: f6a1 7d3e 95ba 623e 9d73 0f3d 2945 f9bc
0.28016463 0.07276503 -0.043144993 0.0039595175 0.13657668 0.0018622843 -0.2162202 0.3068165
-0.051582765 -0.05772001 0.243124 0.04785064 -0.008848346 0.31340608 -0.105465434 0.020545634
-0.002186036 -3.6885653e-05 0.018248009 -0.09653942 0.00083490316 0.07174667 0.059551273 -0.0243305
-0.09056353 -0.01789398 0.08724244 -0.0011223566 0.29316872 -0.030300397 -0.30289862 0.038255047
-0.029188268 -0.47535047 -0.010378332 0.026003681 -0.042188738 0.5569485 -0.2695494 -0.0737628
-0.086437345 -0.036480486 -0.13724317 0.01539057 -1.0463578e-05 0.018531697 0.002004482 0.032808874
1.1364801 -0.06474317 -0.03484312 -0.0012737229 -0.06836302 -0.06186821 -0.0072275274 0.002188762
0.062224947 -0.0225876 0.20808779 -0.07106883 -1.2162174 0.000110441906 -0.07482619 -0.058238983
-0.055641416 0.017189344 -0.06865806 -0.59981257 -0.18280257 0.026574828 -0.03803578 0.012235467
-0.050998054 -0.35608944 -0.015322836 -0.012763349 -0.23189548 0.031737953 -5.582584e-05 -0.02123561
-0.3212496 -0.26939338 -0.25384828 0.18814078 0.046412997 0.007714257 0.057583455 0.06316871
-0.4821287 0.08507405 0.007510084 -0.03479572 0.00075771427 -0.39238068 0.0010146816 -0.16291681
0.009615174 -0.037989512 -0.052899327 -0.002863641 -0.20594737 -0.038818683 0.19841807 0.030857518
0.56584185 -0.07211565 0.07759746 -0.05895075 -0.053665027 0.014127826 -1.7905883e-06 0.011186405
-0.06930112 0.069608964 -0.02282944 -0.28945875 -0.02985621 -0.08332588 -0.00077940023 -0.020705942
-0.018768687 0.0009895104 0.0398078 -0.03532159 -0.08739856 -0.44892418 0.00036465607 0.0003795392
-0.03052532 -0.089239635 -0.36214256 -0.06818654 -0.009436028 0.065628074 -0.05638693 -0.06555656
-0.05733457 0.25571752 0.77051604 0.03890818 0.029570302 -0.35630086 -0.022587743 -0.07794076
-0.011619381 -0.0022243094 0.011578523 -0.012894251 -0.05848109 -0.00018557924 -0.048892524 -0.055800136
0.005326601 0.0060273283 0.0674872 -0.4183276 0.019066453 -0.00410063 -0.029190464 0.019623458
-0.08661661 0.037124306 0.0119401235 0.2620799 -0.00649663 -0.07745324 -0.9952637 -0.03319635
-0.00732641 -0.00035014693 -0.32162246 0.094910294 0.03190403 -0.012623607 0.046939895 -0.000117967385
-0.033132095 -0.05645714 0.047150813 -0.39540166 0.08044369 0.02145547 -0.0556948 0.59264016
-0.09108888 0.20392442 -0.00035665694 -0.008203176 -0.011546047 0.0642108 -0.026841799 -0.05122906
-0.6145514 -0.034470145 -5.5914792e-05 0.068652235 -0.07992851 0.011539211 -0.46845603 -0.04696582
0.025915952 -0.025348801 0.13847686 0.34633818 -0.0014221073 0.37351045 0.085248575 -0.044820618
0.008482928 0.39608374 0.0365263 0.010279751 0.00036592275 -2.2009913e-23 0.05247597 0.18647845
0.037389144 -0.0654346 4.862312e-05 -0.07365625 -0.0075240494 -0.04247051 -0.007965038 5.4548316e-05
0.028482791 0.021124719 0.18707763 -0.022695849 0.0181874 -0.01925013 0.27841124 0.37433589
0.02358517 -0.050885543 -0.112308666 -0.23794566 0.02965493 0.040319942 -5.5374414e-07 0.00024643546
0.00060758356 -0.44823897 0.07606471 0.017300658 0.002936942 -0.3523665 0.33024865 0.00025705056
0.049378663 -0.0017031631 0.00028054256 -0.071239285 0.24768814 0.22141488 0.035022367 -0.030428486

layers.4.bias f4 [3]
00000000: 8bc6 cbbc 21bb 97bc ddc8 60be
-0.024874946 -0.018521847 -0.21951623
