checkpoints/model.ckpt (torch, 282527 bytes, 6 tensors)

layers.0.weight f4 [128, 18]
00000000: 6681 5f3d 97d5 cc3c 939b 0080 ccfb f83d
00000010: 47c9 7abd a102 0080 e18e 293e 7522 d43e
00000020: bb54 0000 7fb3 5cbd d033 dabc 4c89 0080
00000030: bf17 ff3d 28b9 1dbd fd0a 0100 044f 8a3e
00000040: 95ee 23be d619 0080 9644 b13d 72ce cc3c
00000050: 0b7a 0080 1661 10be 88d7 05bf f36a 0180
00000060: fee9 0abe 72ce 00bf 93aa 0080 113b 9cbe
00000070: 09a3 8cbe 5e32 0080 5315 793e 4867 a43e
00000080: ec60 0100 247d 363e 9e26 b03d 365f 0000
00000090: 156a 813e 25b1 15bd b486 0080 25a8 e03d
000000a0: 07cd 443e 04a7 0080 567d 3e3b f7d6 94be
000000b0: e503 0100 818e 383c 0cd9 88bd 85ac 0000
000000c0: ad65 1ebe 80c9 2abc 5d79 0100 d460 8d3e
000000d0: d433 aabe 183a 0000 ba00 733c 1145 b93e
000000e0: b6cc 0100 32bf 643d 2a4c a13e 0c7a 0080
000000f0: 8cfe cbbd d1ec 89be 46e7 0000 2fcb 693e
00000100: c35f 4f3e 962a 0280 8698 5b3e 14cb 27be
00000110: 971b 0100 3446 753e d5bc 913e efcf 0080
00000120: 23fc 57bd e9fa 753e 47f9 0080 8e7f fe3c
00000130: a8a5 d7be 8693 0000 fd6b 5b3c 849e babe
00000140: 80d2 0000 c03b 2fbc f1eb c13d bb39 0080
00000150: f313 983e f6dd debd dacb 0080 fa6c b93e
00000160: ad81 90be 2b16 0200 7ec1 9bbd dca7 dd3e
00000170: 62cf 0080 71d2 dbbc 1a53 1ebe 90d7 0000
00000180: de83 ddbc 67dc bf3e a735 0100 dd29 13be
00000190: 0fde 9c3d 6c05 0100 8af6 883e ef48 cfbc
000001a0: 3e4f 0180 80a5 103e 1685 1e3e 3831 0200
000001b0: eb00 2cbd 8c15 bfbd 6c3e 0000 3635 053e
000001c0: d032 873e b404 0080 68b4 383e 80e2 463d
000001d0: 9855 0000 fca5 c8bd b840 05be 3d5e 0100
000001e0: ddb5 7a3e be02 2a3e e585 0180 b6e0 b9bd
000001f0: d72f 743e fb4a 0180 9dac 1ebe b7e8 2d3e
00000200: 8d62 0000 d6ee 263d 2870 c5bd a514 0180
00000210: d643 45bc 8719 823e 3472 0000 5ce7 25be
00000220: 99be 363e 3236 0080 c541 25be c745 7fbe
00000230: 47d5 0080 ce6d 9d3e 141a cd3e 0b16 0080
00000240: 3c60 083e 9c63 ea3c 163a 0180 9ae2 ff3b
00000250: 1f48 723e a749 0000 1543 15be 0148 41be
00000260: 7662 0180 69a6 3c3d a601 063c 5de0 0000
00000270: 1f7e 8a3e 0f54 853e 29c5 0000 9f6e 463d
00000280: 9f62 acbe e230 0180 4e2f ec3b 768f 1dbe
00000290: a621 0080 720d 2c3e d556 d5be 52bf 0100
000002a0: 30d2 3dbe 2ea5 9c3e 0830 0180 3e27 aa3e
000002b0: b218 84bc a122 0180 6f33 ac3e 370e dabd
000002c0: 0f06 0100 5595 92be b10f 523e 5359 0000
000002d0: 0994 013e d6fe 643d 3e29 0180 bd51 993e
000002e0: 6f63 513d 0fce 0180 73c7 ce3d 9b29 be3e
000002f0: bfa3 0000 bd64 883e d722 293e 3538 0100
00000300: 722e 27be de72 a1be 2afa 0000 87fd 46be
00000310: 11b8 72bc bf4f 0080 875d 0abe 7dd0 c1be
00000320: d212 0080 2759 343e dbf7 cdbd d4f8 0000
00000330: 7e78 3b3d b259 b5be f7f3 0080 3ea0 11be
00000340: ab97 67be d931 0180 451a af3e 62e1 58be
00000350: 1317 0180 986e 463d 484a 0f3d c89f 0000
00000360: 4e16 003e baec 333e 80a6 0100 2d62 dc3b
00000370: c1f0 ea3e 66ce 0180 022b 03be a153 5c3e
00000380: 6137 0180 53f8 1dbe f8fe a33e a2bf 0080
00000390: bceb 763e fdd3 4d3e 8cc1 0080 0f87 2dbe
000003a0: ff3c de3d 75bb 0000 6980 763e 79f7 973e
000003b0: 3fe3 0000 58f9 173e c4d2 0fbe df04 0200
000003c0: ff03 08be 3ff8 153d e05b 0180 59ff e73d
000003d0: 0f35 f0bd a00c 0000 fce7 053e 85dc d4be
000003e0: 8bae 0000 983e 463e 2cde 94be 0c0b 0080
000003f0: a70c 663e 809d a43e e348 0000 9bc5 373e
0.054566763 0.025004191 -5.581e-41 0.121574014 -0.06122711 -9.43e-43 0.1655841 0.4143254
3.0396e-41 -0.05388212 -0.026636034 -4.9253e-41 0.12455701 -0.038506657 9.5777e-41 0.2701341
-0.1600898 -9.268e-42 0.0865566 0.025000785 -4.3781e-41 -0.14099535 -0.52282 -1.30202e-40
-0.13565823 -0.5031501 -6.119e-41 -0.30513814 -0.27468136 -1.8068e-41 0.24324541 0.32110047
1.26605e-40 0.17821175 0.08601116 3.4155e-41 0.25276247 -0.03654589 -4.8322e-41 0.10969571
0.19218837 -5.9914e-41 0.0029066405 -0.29070255 9.3233e-41 0.011264444 -0.066820234 6.1888e-41
-0.15468474 -0.010424018 1.35372e-40 0.27612936 -0.33242667 2.084e-41 0.014831716 0.36185506
1.65272e-40 0.0558464 0.3150342 -4.3782e-41 -0.0996066 -0.2693849 8.2965e-41 0.22831415
0.20251374 -1.98948e-40 0.21444902 -0.16386062 1.01733e-40 0.23952562 0.2846438 -7.4593e-41
-0.05273069 0.24021496 -8.9424e-41 0.031066682 -0.42118573 5.2921e-41 0.013392446 -0.36449063
7.5513e-41 -0.010695398 0.094688304 -2.071e-41 0.2970272 -0.108821794 -7.3128e-41 0.36215955
-0.28223935 1.91623e-40 -0.07605265 0.4329213 -7.4395e-41 -0.026833745 -0.15461388 7.7329e-41
-0.027040418 0.3747284 1.11082e-40 -0.14371438 0.07659542 9.378e-41 0.26750594 -0.025303332
-1.20262e-40 0.14125633 0.15480456 2.01327e-40 -0.041993063 -0.093302816 2.2393e-41 0.1300858
0.26405954 -1.687e-42 0.1803757 0.04855585 3.0705e-41 -0.09797284 -0.1301297 1.25642e-40
0.24483438 0.16602609 -1.39868e-40 -0.09076063 0.23846374 -1.18733e-40 -0.15495534 0.16983305
3.5353e-41 0.040755115 -0.09640533 -9.9241e-41 -0.012040099 0.254101 4.0968e-41 -0.16201538
0.17846145 -1.9442e-41 -0.1613837 -0.24928962 -7.651e-41 0.30747837 0.4005896 -7.908e-42
0.1331796 0.02861195 -1.12673e-40 0.0078089954 0.23660325 2.6421e-41 -0.14576371 -0.18875124
-1.27157e-40 0.04605714 0.008179104 8.0486e-41 0.27049348 0.26040694 7.0728e-41 0.04844534
-0.33668992 -1.09371e-40 0.0072077876 -0.15386757 -1.2071e-41 0.16802004 -0.4166781 1.60468e-40
-0.18537211 0.30594772 -1.09066e-40 0.33233064 -0.016125057 -1.04258e-40 0.3363299 -0.106472425
9.4009e-41 -0.28629556 0.20513798 3.2043e-41 0.12654127 0.055907093 -1.0663e-40 0.29945174
0.051120218 -1.65755e-40 0.10096636 0.37141117 5.8741e-41 0.26639357 0.16517197 1.11999e-40
-0.16326311 -0.3153295 8.9742e-41 -0.1943265 -0.014814393 -2.8608e-41 -0.1351224 -0.37854376
-6.751e-42 0.17612134 -0.1005704 8.9263e-41 0.045769207 -0.35419995 -8.7518e-41 -0.14221284
-0.2261645 -1.09717e-40 0.3419973 -0.21179727 -1.00113e-40 0.048445314 0.03498295 5.7319e-41
0.12508509 0.17570773 1.51564e-40 0.0067255707 0.45886806 -1.65877e-40 -0.12809375 0.21516277
-1.11702e-40 -0.1542676 0.32030463 -6.8745e-41 0.24113363 0.20100398 -6.9432e-41 -0.16946052
0.10851478 6.7247e-41 0.24072422 0.29680994 8.152e-41 0.14841211 -0.14045244 1.85418e-40
-0.13282774 0.0366137 -1.24794e-40 0.113280006 -0.1172887 4.529e-42 0.13076776 -0.41574493
6.2614e-41 0.19359815 -0.29075754 -3.963e-42 0.22465764 0.32151413 2.6147e-41 0.17946474

layers.0.bias f4 [128]
00000000: 7184 473e 1c19 983c 55a1 203e 99e9 b5bc
00000010: 7fc4 823e 6846 b33e d258 963e 247e c03e
00000020: 58c6 a13e ef56 bcbd a808 423e 96ad 363e
00000030: 175a 17bd 9875 3a3e c66c 55bd 2d26 683d
00000040: cb96 a03e 34a0 543e 7a38 1abd 5adf 5f3e
00000050: babf c03e 4c96 cd3e 2e56 61bd dec3 1b3e
00000060: fb49 b13d 38cc 2e3e 321c 423e 9944 853e
00000070: 51e2 4fbd b529 2d3e 9a9d 933e 1210 b63d
00000080: caf9 56bd 598d 4e3e a3ff 3e3e 86ad c03e
00000090: b6f2 203c 671d 6a3e ba3a 93bc ebcc 9c3e
000000a0: 39be 473e a6dd 86bd fc07 e43d 213c 103e
000000b0: e0bf afbb f149 a43e 6a1e a63e 8956 a53e
000000c0: b075 943e b0af 093e 3099 87bd 544d f03e
000000d0: 68c0 57bd ef44 c73e f04c 09bd 25b8 103c
000000e0: f096 773e 9319 833e 34e4 9d3e c7c2 8c3c
000000f0: b8a6 8a3e bb4c e13d d5b6 3d3e cb0b aa3e
00000100: 5330 1c3e 0576 6f3e 54d0 b1bc c393 8c3d
00000110: 048d f23a 1aae 873e 256f f93d 85fc 293e
00000120: 5e62 863e dd1c 773e cf0d dbbc 9b79 083e
00000130: 6ae7 8f3e 0e47 1dbc 3d9d 4bbb a881 ca3e
00000140: 61aa 293b 3650 863e 5671 e63d 32f3 7e3e
00000150: 762f 9d3e dffe 883e c9cc 693e a755 853c
00000160: 3fe7 4b3d 3520 ecbc ac1e a93d 960c d33d
00000170: 58ee 1fbd 6167 473e c491 16bd 314c 003d
00000180: d0b4 03bc 1025 fbbc d5a4 bf3e b4dd 473d
00000190: aa7c a33e bd6d 093e 7ca6 663e f08d 713d
000001a0: 6a7c 34bd c854 333e fd3e f23d 44e7 c43e
000001b0: d658 c53e fd03 b8bc be92 febc 92f2 443e
000001c0: cd50 903e ac21 c73d c5a9 ac3e 49a8 e43d
000001d0: a843 e33d e006 8d3e 9b12 873e 03de 753e
000001e0: 8a57 353e 53bd e6bd a72b 93ba fa9a 513e
000001f0: f883 a53e 18c7 a23e 3365 563d aa65 163e
0.19484116 0.01856666 0.15686543 -0.022206115 0.2554054 0.35014653 0.2936464 0.37596238
0.31596637 -0.09196269 0.18948615 0.17839655 -0.03695115 0.18208921 -0.052105688 0.056677032
0.31365046 0.20764238 -0.037651516 0.21862546 0.37646276 0.4015373 -0.055013828 0.15211436
0.08656689 0.17070091 0.18956068 0.26028898 -0.05075294 0.16910441 0.28831178 0.08889784
-0.05248431 0.20171107 0.18652205 0.37632388 0.009823492 0.22862779 -0.017972339 0.3062509
0.19506158 -0.06585245 0.111343354 0.14085437 -0.0053634495 0.32087663 0.3244508 0.32292584
0.28996038 0.13445926 -0.06621015 0.46933997 -0.052673727 0.3891978 -0.03352064 0.008832966
0.24178672 0.2560545 0.30838168 0.01718272 0.2708032 0.11000963 0.18526776 0.33212122
0.15252809 0.23384865 -0.021705784 0.06864121 0.0018505161 0.26500016 0.12179402 0.16600235
0.26246923 0.24132104 -0.026739983 0.13327639 0.28106242 -0.00959946 -0.0031069063 0.39552045
0.0025888907 0.2623307 0.11252086 0.24897459 0.30700272 0.2675695 0.22832026 0.016276194
0.04978108 -0.028823951 0.08257803 0.10305135 -0.03904566 0.1947303 -0.036760107 0.03132266
-0.0080387145 -0.030657321 0.37430444 0.048795417 0.3193105 0.13420768 0.22524446 0.058973253
-0.044063963 0.1751281 0.1182842 0.38457692 0.3854434 -0.02246284 -0.031075832 0.19233158
0.28186646 0.09723219 0.33723274 0.1116491 0.11096889 0.27544308 0.26381382 0.24010472
0.17709175 -0.112665795 -0.0011228219 0.20469275 0.32327247 0.3179252 0.052342605 0.1468722

layers.2.weight f4 [512, 128]
00000000: 2642 843d 72bd aa3e 8930 da3d 7f62 313e
00000010: 8661 383e 17e6 1b3e ee79 6f3d b475 7a3d
00000020: 5c8f f93d bb75 9d3d 56b0 8f3d a7ea c73d
00000030: 41d5 923d cf69 153e a366 e33b 110a 713d
00000040: 0057 113e 79c0 30ba d983 bf3d fbe4 063e
00000050: d7c1 8f3d 7f42 573b 4df6 3f3d 5ae0 163e
00000060: b6d8 303e 17eb f53d 592e 093e cb59 a73d
00000070: 566b f93a a7a9 d73d 3557 bd3e 9dfb fd3d
00000080: e678 463d 0d8a 613d 5063 2e3d 6b17 1d3e
00000090: a1b8 473e e2b0 cb3d dbb8 203e 9022 5e3d
000000a0: 111d 383e a938 d73d b00b 743e e098 0c3e
000000b0: 4360 a83c 0ae8 523e 58fb 633e 8d77 ec3d
000000c0: 02e0 693d 2153 813e ade3 683e 50f0 5e3e
000000d0: 1c41 bf3d ba50 1b3e 8bb3 293e c68a 703c
000000e0: f689 303e ae52 673d 5a17 083d 9f96 063e
000000f0: dda4 563e 6c34 f0bd a10e 013e 2ba4 05bd
00000100: 0a32 1b3e b5b6 483e d14c 993d eac4 113e
00000110: db02 cb3d 1819 023e 7f15 a93c 477d 273e
00000120: 5511 9e3e a22c 933e a87e 3b3e 7384 813b
00000130: 7a4c 243e 5616 f43c 3152 683d a5e1 643e
00000140: f879 4a3e 7903 323e 03bd 303e f031 023e
00000150: 008e 653e 3759 3d3d 7a5a 0e3e 1079 063b
00000160: 2401 d93d 0b52 533d 1c7d 313e 187e a33d
00000170: f1ec b63c 4dc5 b73d 7332 ff3d c042 583d
00000180: 94f3 0b3e 58cf f73d 4de8 ea3d 0ea5 433e
00000190: 1dfd 743d f9d0 0b3c 1b72 323d 6e63 c23d
000001a0: 4d28 d63d 67f8 0f3d d872 5d3e ecaa 1f3e
000001b0: 43bc 263e cd68 653d b90d c73d de4b b23d
000001c0: 8534 fb3d da1c 843d 00e2 9f3d 22e6 8b3d
000001d0: 149b f83c d284 bb3d 9c1a c43d 0f1f 73bc
000001e0: 298a c8bc 1bce bc3d a329 103e fe0b 803d
000001f0: f4bf 483e 5474 153e 7539 cb3e 138f 3cbd
00000200: a678 5bb5 fd7e 89a4 39fe 1930 24db 3da7
00000210: 3d91 01b0 9d32 7eb2 c602 33b5 eb22 a6aa
00000220: 170c 92b3 a0fb a3b2 e596 66b4 0a77 f632
00000230: 4c65 92ae 6c89 56b3 dfe4 d7a6 1d85 7eb4
00000240: 3c94 4eb3 e562 73b5 16ed 16b4 9938 022b
00000250: 2623 76b7 43b8 ffb4 5095 3ab3 fcf1 29ac
00000260: 3a79 d829 d8f2 552c d2fd 24b6 4919 f633
00000270: 4005 34aa 173e c6a3 0190 3fa1 a48f 71af
00000280: 91c1 0ab7 5d62 82b5 fa25 c0ae e2ab 82b4
00000290: d34e fbb4 ca4f 082b 2727 cfaf acd5 d3b0
000002a0: fce4 75ac af86 07ac 2bbf bbae da6e 75af
000002b0: 42b1 d9af fa1d 25b2 40c8 b3b2 bd85 13b4
000002c0: 1d0c 8bb5 3a71 aaab c057 9cae 6ea5 aaae
000002d0: 65f8 32ad f64b 46b2 a281 bf2e f945 42b3
000002e0: 902f 812b 0485 2fae 7ddb e0b4 cb83 dbb3
000002f0: 6625 c232 6b10 d5ad 868d 92b4 3def 85b4
00000300: 1757 ecb5 e276 a82b 2212 caa8 fcf0 49af
00000310: ddc3 b8b2 cf19 abb6 b5f6 0bb6 faab 98b0
00000320: fe28 cd25 b6cd 8122 3505 bd25 2635 19b5
00000330: 0d23 32b3 053e 9ab3 f602 98b0 218c 462f
00000340: 642d 1e2b 42a8 79a1 a6d1 87a4 2e0b 82a6
00000350: 3498 fdb2 fdc1 5cb2 2f12 a032 b58f 0c27
00000360: bd80 baac 8cc9 73b4 40a1 26b4 217e c4b5
00000370: 48fa 2db5 a401 0fb6 fb9d a3a4 4e8c 0bb4
00000380: 6c7d 27b5 5818 65b5 20dc 86b2 f86e 2b2c
00000390: 207d 6ab2 08f9 6cb0 7c0b 49b4 ac36 ecb5
000003a0: e738 91b5 a371 37b6 12a8 28a9 da09 fab1
000003b0: d6c0 34ac 0c42 30b2 55bd 811c d067 abb5
000003c0: ccec 46b5 a093 20b2 2779 00b5 4deb 09b1
000003d0: 2284 a9a8 6c07 cdb6 bc8c 97b1 8188 aab3
000003e0: 1d5b f7b1 429b f3ae acd9 86b2 83bc bcb5
000003f0: 6665 3433 cf0e 5db6 97e4 128e c61f 8fb4
0.06457929 0.3334766 0.106537886 0.1732273 0.18005952 0.15224491 0.05846589 0.061147407
0.12185547 0.07688471 0.07016055 0.09761553 0.07169581 0.14591144 0.0069397255 0.05884749
0.14193344 -0.0006742548 0.0935132 0.13173287 0.07019394 0.0032846031 0.04686575 0.14734021
0.17270169 0.120077305 0.13396586 0.081714235 0.0019029181 0.105304055 0.36980596 0.12401507
0.04845514 0.055063296 0.04257518 0.15340964 0.19504024 0.09945847 0.15695517 0.05423218
0.17979838 0.10508854 0.23832583 0.13730192 0.020553714 0.20596328 0.22263849 0.1154624
0.057098396 0.25258735 0.22743101 0.2177136 0.093385905 0.15167513 0.16572396 0.014681524
0.17240128 0.056475334 0.033225395 0.13143395 0.20961328 -0.11728749 0.12603237 -0.032627266
0.15155807 0.19600947 0.07485355 0.14235273 0.09912654 0.12704885 0.020640133 0.16356383
0.30872598 0.2874499 0.18310034 0.0039525568 0.16044798 0.029795807 0.05671901 0.22351702
0.1977309 0.17384137 0.17259602 0.12714362 0.2241745 0.04622766 0.13901702 0.0020518936
0.10595921 0.051591914 0.17332882 0.07983035 0.02232978 0.08973179 0.12460794 0.052798033
0.13667136 0.121000946 0.11470089 0.19105932 0.0598117 0.00853371 0.04356585 0.09491621
0.104569055 0.035149004 0.2162584 0.15592545 0.16282754 0.05600815 0.09719414 0.08705877
0.12265877 0.064508155 0.07806778 0.06831004 0.030347385 0.09156193 0.09575388 -0.014838948
-0.024479942 0.09218999 0.14078383 0.06252287 0.19604474 0.14595157 0.39692274 -0.046034884
-8.1759424e-07 -5.9629406e-17 5.602235e-10 -2.6347815e-15 -4.713632e-10 -1.4796254e-08 -6.668673e-07 -2.9511753e-13
-6.800854e-08 -1.9090123e-08 -2.1475314e-07 2.8692302e-08 -6.657305e-11 -4.9950742e-08 -1.4980658e-15 -2.370402e-07
-4.809793e-08 -9.0668465e-07 -1.405609e-07 4.6263823e-13 -1.4670926e-05 -4.763152e-07 -4.34423e-08 -2.4150673e-12
9.6133564e-14 3.0403926e-12 -2.4585647e-06 1.1459867e-07 -1.5989033e-13 -2.1493499e-17 -6.4903905e-19 -2.1969854e-10
-8.270509e-06 -9.714382e-07 -8.737895e-11 -2.4339448e-07 -4.6809745e-07 4.8427636e-13 -3.76809e-10 -1.5413e-09
-3.4943706e-12 -1.9259418e-12 -8.537734e-11 -2.2322003e-10 -3.959802e-10 -9.61108e-09 -2.0929406e-08 -1.3739096e-07
-1.0359832e-06 -1.2110653e-12 -7.109646e-11 -7.760091e-11 -1.0173283e-11 -1.1542388e-08 8.708702e-11 -4.5232785e-08
9.179203e-13 -3.9908535e-11 -4.188295e-07 -1.0221955e-07 2.260158e-08 -2.4222587e-11 -2.729759e-07 -2.494725e-07
-1.7608717e-06 1.1970115e-12 -2.2434369e-14 -1.8366458e-10 -2.1509488e-08 -5.0992016e-06 -2.0856216e-06 -1.1108334e-09
3.5589609e-16 3.5183325e-18 3.2789802e-16 -5.707428e-07 -4.1475733e-08 -7.182465e-08 -1.1060297e-09 1.8057779e-10
5.619587e-13 -8.458717e-19 -5.8902076e-17 -9.023592e-16 -2.952229e-08 -1.2849793e-08 1.863472e-08 1.9506807e-15
-5.3007308e-12 -2.2704461e-07 -1.5518617e-07 -1.4639846e-06 -6.481173e-07 -2.1309615e-06 -7.095761e-17 -1.2996426e-07
-6.239486e-07 -8.534457e-07 -1.5699754e-08 2.4362162e-12 -1.3649043e-08 -8.6210195e-10 -1.8723762e-07 -1.7599282e-06
-1.0819903e-06 -2.733527e-06 -3.744927e-14 -7.2770776e-09 -2.5686584e-12 -1.0259566e-08 8.585445e-22 -1.2770706e-06
-7.410533e-07 -9.346792e-09 -4.7860016e-07 -2.0069877e-09 -1.8820073e-14 -6.11034e-06 -4.410678e-09 -7.941072e-08
-7.1990045e-09 -1.107794e-10 -1.5698639e-08 -1.4061956e-06 4.2001737e-08 -3.2940186e-06 -1.8105951e-30 -2.6658944e-07

layers.2.bias f4 [512]
00000000: 17de 1c3e 0a6c 8bb6 27f6 813d 1a70 483e
00000010: 5cac d4b8 4263 e43d b72a 1b3e e5c4 0e3e
00000020: 9b93 00bb 859a 50bd 845b 373e 2808 143e
00000030: 884e 73ba 7002 e4a0 8399 26af 40a7 dc3d
00000040: 9819 373e 7591 b83d b467 403e 346c c33d
00000050: ec56 a83d 8ff4 233e c6d6 163e 63c3 0e3e
00000060: b223 b83d da0a 3e3e 19c9 8e3d 4564 b4ba
00000070: fd1d 16bd d49d d0b9 c19a d1ba 888a 3dae
00000080: 6b25 0abc 368b c03d 8b3f d8a7 de0c 293e
00000090: 2501 573e a218 153e e394 bab3 eb16 b43d
000000a0: 691e ef3d 4d0d 303e 7679 333e 4108 56ba
000000b0: 0a45 ff3d 2af7 1aaa 3882 85bc 36cd aa3d
000000c0: 9306 653d 6626 95ac ca44 1c3e c682 293e
000000d0: 4e70 243e 1ac3 173e f589 1f3e 557e dc3d
000000e0: 252a bb3c 28b2 a73d 9b64 cc3d 6ea1 31bd
000000f0: 74bd 5a3d 4388 253e d1b0 1b3e a319 fb3d
00000100: 9908 243e 87a4 f13c dfb4 433e e6bd a83d
00000110: 7fda 06b9 57b3 99b1 5829 4c3d 1dbd d2ba
00000120: 0361 4d3c ee40 4f3d 0fa3 123e b12f 863d
00000130: b10d cf3d af1c bb3c 3247 7f3d 095f 703d
00000140: 2a23 083c 919f 513e ffc1 263d 3ecc fb3c
00000150: 2af4 353e c977 2f3e 6418 f13d b390 493e
00000160: 92ab eeba 1709 5fbb 5774 1d3d 0fc8 ebb5
00000170: 9284 edba f0ca 033e 4ef6 1f3d 8698 25b7
00000180: eeb2 493d 7864 f63d 47aa f2ba c44a a73d
00000190: 87d1 6c3d 0f14 1d3e ddf5 733c f180 2f3e
000001a0: 148b 8e3d c738 b53d 63a1 c63d 3bed 3d3e
000001b0: 6cbb ef3d 219b 333e db1c 6e3d 1834 0f3e
000001c0: 2891 1e3e 2451 ee3d 57d0 c43d 8008 39bd
000001d0: 800a ed3d fd95 a53d 5b39 1c3e 5091 3d3c
000001e0: f297 a93d ea1f 173d 8eab 233c 97f0 43b8
000001f0: 8338 f43c a99d 413e f479 b53d f688 de3d
00000200: 2688 2b3d 45c2 3b3e f064 a3bd a574 da3d
00000210: 7e1a 273e 726b ae3d 9676 8cbd e8e2 3f3e
00000220: 18dc ff3d de77 083e 1974 203e 012d fe3d
00000230: e041 613d b835 383e 6715 393e b64a c23d
00000240: cb8f 933d f9cf 24bb 051b 0abb fbf1 76af
00000250: 9536 c63d 1948 503d d014 843d 2c59 b1bd
00000260: 3b51 fabb d894 9c3d 4eb1 e13d c37f a2b3
00000270: 6c2b 133e 3ab7 df3d 8df1 243e 7f45 a73d
00000280: f07c af3d c88d 133e 9b1b 793d 606a 7ebb
00000290: cb6b cd3d 5928 373e cdb6 a4ba 4f4c dd3d
000002a0: 882f e1b3 46b1 f73d 2a01 2d3e 6907 8ea7
000002b0: d269 023e eaaa 113d 2d55 daba b755 f83d
000002c0: 022a 633d 2266 033d 5a9b 22bd 404e 033e
000002d0: e86c 983b e544 abbd 934e 8e3d a8d6 263e
000002e0: a698 5f3d a425 3b3e 4927 f8bb 2df6 5e3d
000002f0: 56ba 3b3e 6d61 523c 8398 9a3d e052 3c3d
00000300: ff0a 833e fc2b 593d c897 a13d a83b 473e
00000310: 0c64 60bb f889 9dbd 5d80 2b3e c0eb bbae
00000320: f93b d8bb a9b8 2a3d febf 7fba 4f8d cb39
00000330: 887b f13c 13e9 b63d 8968 adbd d0a6 543e
00000340: b4af b0b3 e1a9 563e edce b23d eab7 3a3e
00000350: d084 a63c 517a 193c 8d17 cc8f 25dc f33a
00000360: a9eb 9e3d e768 60bd 8a86 813d f10c 5d3d
00000370: 960c 54bb 4dd7 9d3d 0ee9 053e 6241 af3d
00000380: 691e 073e 01d1 533e e090 253e 8afc 4aaf
00000390: 347f 3d3e 08ab 9b3d d09a 973d dbb8 e63d
000003a0: 2bcb b68d dd71 b83d fdbd 433e 8ab5 09b8
000003b0: 6681 903d 74dd 83bb 0eb7 263e 97d3 96b4
000003c0: 8677 129a 5ba0 ec39 bbc2 f53d 21ff 703d
000003d0: 6072 503e aa20 3ca9 fe5a 79ba 1dbf ad3d
000003e0: 9279 903d 2bb4 0d3e ee86 863e 0d57 1fbb
000003f0: a7ee c9ad 717f 9d3d 650e 153d 7d4d 63b8
0.15319096 -4.1551e-06 0.06345778 0.19574013 -0.00010141052 0.111517444 0.15153013 0.13942297
-0.001961923 -0.05092861 0.17906004 0.14456236 -0.00092814164 -3.8626315e-19 -1.515215e-10 0.10774088
0.17880857 0.09012119 0.1878956 0.095421225 0.08219704 0.1601126 0.14730367 0.13941722
0.08991183 0.18558827 0.0697195 -0.0013762793 -0.036649693 -0.00039790443 -0.0015991555 -4.3096665e-11
-0.008431773 0.094015524 -6.0020937e-15 0.16508815 0.2099653 0.14560178 -8.688382e-08 0.08793434
0.11675722 0.17192574 0.17526802 -0.0008164682 0.1246434 -1.37637e-13 -0.016297445 0.08339922
0.055914473 -4.239098e-12 0.15260616 0.16553792 0.16058466 0.14820519 0.1557997 0.107662834
0.022847245 0.081882775 0.099801265 -0.043366842 0.053403333 0.16165261 0.15204169 0.12260749
0.16018905 0.029497398 0.19111966 0.08239345 -0.00012860632 -4.4732746e-09 0.049844116 -0.0016078089
0.012535336 0.05059903 0.14320014 0.06552065 0.10110033 0.022840826 0.062323757 0.058684383
0.008309165 0.20471026 0.040712353 0.030737039 0.17768922 0.17135538 0.1177223 0.19684105
-0.0018209091 -0.0034032518 0.03844103 -1.7567089e-06 -0.0018121174 0.12870383 0.039053254 -9.8702785e-06
0.049242906 0.12030882 -0.0018513881 0.08168557 0.05781701 0.15339683 0.014890161 0.17139031
0.06960121 0.0884872 0.09698751 0.18547527 0.1170567 0.17539646 0.058132987 0.13984716
0.1548506 0.1163657 0.0961005 -0.04517412 0.11574268 0.080852486 0.15256254 0.01157029
0.082809344 0.03689567 0.009989632 -4.671569e-05 0.029812103 0.18907799 0.08861151 0.10865967
0.04187789 0.18335827 -0.07978237 0.106667794 0.163187 0.08516587 -0.06858556 0.18738902
0.124931514 0.13326976 0.15669288 0.124109276 0.054994464 0.17989242 0.1807457 0.09486906
0.07205161 -0.0025148375 -0.0021073234 -2.2459538e-10 0.096783794 0.050850008 0.06449282 -0.08659586
-0.007639078 0.07645577 0.11020146 -7.5669526e-08 0.14372033 0.109236196 0.1610777 0.08167552
0.08568752 0.14409554 0.060817342 -0.0038820729 0.100303255 0.17886485 -0.0012566686 0.1080557
-1.0486025e-07 0.12094359 0.16894975 -3.942095e-15 0.1273568 0.035563387 -0.0016657464 0.12125724
0.055459984 0.032079823 -0.039698936 0.12822819 0.0046516545 -0.0836275 0.069485806 0.16292822
0.054588936 0.18276078 -0.0075730425 0.05443399 0.183328 0.012840611 0.075486206 0.045977473
0.25594327 0.053020462 0.07890278 0.19456351 -0.003423932 -0.07692331 0.16748185 -8.545653e-11
-0.006598946 0.041680012 -0.0009756087 0.0003882446 0.02947785 0.08931174 -0.08467204 0.20766759
-8.227599e-08 0.20963241 0.08730874 0.1823422 0.020327002 0.009367541 -2.0125025e-29 0.0018605037
0.07759792 -0.054787543 0.063244894 0.05396742 -0.0032356135 0.07707081 0.13077185 0.08557393
0.13195194 0.20685197 0.16168547 -1.8461513e-10 0.18505555 0.07600981 0.07402575 0.11265727
-1.1265527e-30 0.09006093 0.19115444 -3.2832417e-05 0.07055931 -0.004024202 0.16280767 -2.809363e-07
-3.0288643e-23 0.00045132902 0.120000325 0.05883706 0.2035613 -4.1772717e-14 -0.0009512155 0.084837176
0.07054438 0.1383826 0.26274818 -0.002431336 -2.2957037e-11 0.07690323 0.03639068 -5.4193184e-05

layers.4.weight f4 [3, 512]
00000000: dc0a 713c 46ca 23ba ba2d f7be 6eee ebbc
00000010: ef88 a6b8 9bf2 41bd 6736 55bd 72f3 213c
00000020: 8499 863a eeff 5cbe 9874 c0bc 1c34 45bd
00000030: c366 16ba 9e27 e1b6 dec5 82b1 8d1a 90bd
00000040: cd56 033d cc6b ca3d 237a adbc 9bdc 07bd
00000050: 284b 12bd 6aaf b5bc 5c0b deba 69e4 7abd
00000060: d99f 02bd e0f1 89bc 4496 9cbd 7891 26bb
00000070: f870 c3be 2495 9dba 9bf1 26ba 0ff4 183a
00000080: bf9e 8bbe 3f8e 2f3d c159 1c3a f7b3 d3bc
00000090: 4b54 b1be 8c65 c23c 932a c9b9 257e 5c3c
000000a0: 7dd3 16bd ed6b 7bbd 588d 2b3d b63f ed39
000000b0: 0bbc 49bd d8f4 533a 6ba4 c0be 38ce 423d
000000c0: 058f 13bd 4f64 283a bd3a df3c e601 273a
000000d0: 749e 5fbd 473f 24bb c48a 88bb a0a9 71bd
000000e0: 4860 b53e 8293 26bd 3925 6abc 6f08 0ebe
000000f0: d80f c0bd 82a5 f9bc 19c9 ffbc 1496 81bd
00000100: 210d 73bd 301b 8f3d 2438 cdbc 5737 5ebd
00000110: a4b4 0ab9 3282 0000 1279 bd3c 9487 94bb
00000120: 5495 88be 0df9 3c3c 9bdd 523d b63b 8ebe
00000130: c748 5abd a9c3 663b ad6c 393c 02fd 11bd
00000140: 4f60 9ebe 27c3 0abd c434 b03c 0cb8 1f3c
00000150: 508c ce3c 3c16 14bd 43e3 48bd 54e3 75bd
00000160: 41df 67ba 7435 413a 11ae a43e 307a b83a
00000170: 24ea 103b 5352 05bf 76b8 96be 6393 a2ba
00000180: cc18 1a3c 82ea 4dbd dfeb 2ebb 4e76 81bd
00000190: 5dd3 1fbe f8ee 18bd b245 03be 4d93 04bb
000001a0: f809 0f3d fb17 54bd 8486 de3c a96c e23c
000001b0: 26af e1be 9e17 2cbd afd2 53be 7caa acbc
000001c0: ab31 93bb b10f 8dbd 2920 993c e98e 813e
000001d0: 8b4a ca3c 3bb7 86bd c497 c2bb 67f0 92be
000001e0: 69d5 9a3c 814c 88bc f025 77be a8b3 203b
000001f0: 7d9a 053d 439f c4bc 5c91 76bb a9b9 01bc
00000200: 4a86 96be b264 4f3c 0a9f b8be cb10 4abc
00000210: cfed 16bc eee0 703d 7568 83be 4120 86bd
00000220: ff98 66bd 96ff 1abd b45b 043d c231 e13a
00000230: cdee 68bc ce78 e5bc 6997 3b3d 2d6b 663d
00000240: 16b0 30bd 4f88 9ebb 1260 973b 4b4a c0ba
00000250: e966 af3c d0ce 01be 666e 28bd 74f9 593e
00000260: 4aa3 023e 446a ec3b 7a0f 103c dcc4 b8b9
00000270: c5d4 1fbc 7147 18bb 4f43 60bc 62c8 da3c
00000280: 1412 a5bb ccfa a9be e3f8 cb3c 1a98 f2ba
00000290: be78 1dbd d3de db3b 6421 793b 618f 96bd
000002a0: 739f 95ba a413 f43c 492b c1bc 0d4e 65b9
000002b0: e647 843d 7091 75bd 458c 09ba 5195 d4bc
000002c0: 4a95 1cbe c348 c0be f442 8a3e 7fe6 e13c
000002d0: 39e4 85be 85ec 703e 9512 c73d 6046 a8bc
000002e0: 569a f0bc a3c7 7a3b d6d2 a6be 1c0d 74be
000002f0: bbb1 0ebc 04e6 883e d056 73bd 6df2 a43e
00000300: 5060 21be d464 4abd 9bc3 cabc 1607 c03c
00000310: 9a2e abba 01f4 ba3e f2f7 cd3c 413f 0eb9
00000320: 8766 a23e 46e2 103b cff4 213b 5bfd 81bb
00000330: ce0f 483e c08b 033d 2c58 6a3e a265 b7bb
00000340: fd71 d63a bdac 23bd 8fca 12bd d691 89bc
00000350: 96eb 66be a293 11be e1d5 d8b8 c58a 52bc
00000360: c6e9 f13d f6f4 933e 280f dc3c 71a3 e13c
00000370: 9a38 4eba 8044 8b3e cc5f d33b 8674 79bd
00000380: 71c1 c1bc 4836 03bb a0cc b43c 7ab7 b539
00000390: fe63 323c 0b0e 00bd e23f 953c 1c3e 073d
000003a0: 79ad 67b9 223c bb3e f1e4 013d 9b45 d13a
000003b0: c1ca 213d d83f 8d3b 3eca 1bbd ddb6 3cba
000003c0: e914 7fb5 a00e 313e 44e1 16bd 1b1d 51be
000003d0: 3222 53bd 50e8 45b2 40cf 9739 179e 64bb
000003e0: a098 bd3e 5302 3ebd c03f 0cbc c93a b4b8
000003f0: 4c26 3837 b41e 34bd 805b 22be e602 3dba
0.014712062 -0.00062480976 -0.48277074 -0.028800216 -7.941003e-05 -0.047350507 -0.052053835 0.009884702
0.001026914 -0.21582004 -0.023493096 -0.0481454 -0.00057373586 -6.7101346e-06 -3.805993e-09 -0.07036314
0.0320652 0.09883842 -0.021176403 -0.03316937 -0.035716206 -0.02217837 -0.0016940641 -0.061252985
-0.031890724 -0.016838968 -0.076458484 -0.0025416296 -0.38172126 -0.0012022597 -0.00063683995 0.00058347074
-0.2726955 0.042860266 0.0005964302 -0.02584265 -0.34634623 0.023730062 -0.00038369428 0.01345781
-0.036822785 -0.061382223 0.041882843 0.0004525163 -0.049251597 0.0008085496 -0.3762544 0.047559947
-0.036025066 0.00064236386 0.027249688 0.00063708273 -0.054594472 -0.002506213 -0.004166933 -0.058999658
0.3542502 -0.04066802 -0.014291101 -0.13870405 -0.09378022 -0.030474428 -0.03122382 -0.06327453
-0.059338693 0.069876075 -0.025051184 -0.054251995 -0.00013228 4.6705e-41 0.02312902 -0.0045327637
-0.26676428 0.011533988 0.05148087 -0.2777993 -0.053292062 0.0035211837 0.011317414 -0.035641678
-0.30932853 -0.033877518 0.021509536 0.00974847 0.02521339 -0.036154017 -0.04904486 -0.06003125
-0.0008845218 0.0007370331 0.32164052 0.0014074501 0.0022112215 -0.5207874 -0.29437608 -0.0012403544
0.009405326 -0.050272472 -0.0026690883 -0.06321393 -0.15607972 -0.037337273 -0.12819555 -0.00202294
0.034921616 -0.051780682 0.027163751 0.027639704 -0.4407894 -0.04201471 -0.20685838 -0.021077387
-0.004492005 -0.068877585 0.018692093 0.25304344 0.024693748 -0.06577917 -0.005938502 -0.28699037
0.01890059 -0.016638042 -0.24135566 0.0024521146 0.032618035 -0.024001723 -0.0037623262 -0.0079178
-0.2939933 0.012658285 -0.36058837 -0.012333105 -0.009211971 0.05880826 -0.25665632 -0.06549121
-0.056298252 -0.037841402 0.032314017 0.0017180967 -0.014217091 -0.028011706 0.045798693 0.056254555
-0.04313668 -0.0048380266 0.004619607 -0.0014670579 0.021411376 -0.12676549 -0.04112091 0.21286565
0.12757602 0.0072148163 0.008792752 -0.00035241887 -0.009755318 -0.0023235942 -0.013687923 0.026706878
-0.0050375555 -0.33199155 0.024898952 -0.0018508465 -0.038445227 0.0067099123 0.0038014287 -0.07351566
-0.0011415317 0.029794522 -0.02358021 -0.00021868218 0.06459026 -0.059953153 -0.0005247037 -0.025950106
-0.15291324 -0.37555513 0.27004206 0.02757573 -0.26150683 0.23527725 0.09720341 -0.02054137
-0.029370468 0.0038265965 -0.3258273 -0.23833126 -0.008709366 0.26737988 -0.059408963 0.32216206
-0.15759397 -0.049412563 -0.024751475 0.023440879 -0.0013060153 0.36514285 0.025142644 -0.00013565739
0.31718847 0.0022107526 0.0024712568 -0.00396697 0.19537279 0.032115698 0.22885197 -0.0055968324
0.0016360875 -0.039959658 -0.035837706 -0.016793173 -0.22550806 -0.14216474 -0.00010339521 -0.012850468
0.11812167 0.28897828 0.026862696 0.027543755 -0.00078667107 0.272007 0.006450629 -0.06090214
-0.02365181 -0.0020021368 0.022070229 0.0003465971 0.010888098 -0.031263392 0.018218938 0.033018216
-0.000220945 0.36569315 0.031712476 0.0015966179 0.0395 0.0043105893 -0.03803467 -0.00071988796
-9.502533e-07 0.17290735 -0.036835924 -0.20421259 -0.051546283 -1.1519731e-08 0.00028955378 -0.0034884268
0.37030506 -0.046388935 -0.008560121 -8.5940184e-05 1.0976171e-05 -0.043974593 -0.15855217 -0.000721021

layers.4.bias f4 [3]
00000000: e0bc 75bd bd6a 0dbd a1cb ccbd
-0.05999458 -0.03452562 -0.09999777
